model/target_model.npz (npz, 7006 bytes, 4 tensors)

arr_0 f8 [12, 50]
0	0x3feaa64580f4abbc	0.8327968138377098
1	0xbff5c65dfd3382fb	-1.3609294787094643
2	0xbfdcf2fc5505af81	-0.4523306684775364
3	0x3fc2ffce5c7f653c	0.14843158260809186
4	0x3ff1f51489717e09	1.1223340386276297
5	0x4001cfaa352e5f3c	2.226398864247953
6	0xbfe47cd221c44a8b	-0.6402369174487189
7	0xbfcef4e6b8de96f7	-0.24184879328566186
8	0xbfd446b66c87ff9a	-0.316815954196494
9	0xbfd9ddac2dd6cc34	-0.4041548202178007
10	0x3fd8d367f879ccee	0.3879032064935036
11	0x3fc378598224c9dc	0.15211027960465529
12	0xbfe6b54f117f9842	-0.7096324292913396
13	0xbfd65dc36f6ffe67	-0.3494728649384115
14	0xbf8bb31c5e8b77b7	-0.013525220523145849
15	0x3ff56316585e8d5e	1.336691231911423
16	0xbfe32c55e82fd671	-0.5991620573901867
17	0x3fb24398045adec8	0.07134389978716194
18	0x3ff57809233db922	1.3418055893521985
19	0x3fb9adb5907f7241	0.10030684259204127
20	0x3f7c127c361b0efc	0.006853566361033844
21	0x3ff7d47b9d366091	1.4893757001027874
22	0x3fe91f89d2f0dda4	0.7850998992861844
23	0xbfe591fb77e1f63c	-0.6740701047380706
24	0x3fc6e96c3bc29132	0.17899849813432805
25	0x3ff6bb4c8633972a	1.4207272760626872
26	0xbfe47f5b8040584e	-0.6405465607556466
27	0xbfeef6beb4d98907	-0.9676202327939628
28	0xbfbf209e68b3b608	-0.12159147316170771
29	0x4003ff252347b877	2.499582553507078
30	0xbfdf96296669d3a8	-0.49354014397914137
31	0xbfe5fc5b676071e3	-0.6870553034855756
32	0xbfffb05106619983	-1.9805460213916326
33	0x3fc5cd3faf541c3c	0.1703261953445877
34	0xbff61c500f66bc74	-1.3819122888196747
35	0xbfe9a267534f5cc0	-0.8010746600292791
36	0xbff42a609c9e9373	-1.2603460424372457
37	0xbfc2a16059eecd3c	-0.1455498160481542
38	0x3fc9eac79d0af1b9	0.20247740905860015
39	0xbfdbe121e011ec72	-0.4356159866508228
40	0x3fd4a4c9ab72161a	0.32255784743060334
41	0x3fc5683286a53a39	0.167242351288637
42	0xbfbe57e1aadd6f43	-0.118528465476115
43	0xbfcb4eb75c7f59b0	-0.21333972946622515
44	0x3fd8ccd351a67d18	0.38750155423800114
45	0x3fc6b0d53667b6c6	0.17727151066303842
46	0xbfd1d4b4fe5bf2a3	-0.2786076053596764
47	0xbffb22840d33bbd3	-1.6959267154413638
48	0xbfc34a2d030ca2a1	-0.15070116661924707
49	0xbfcf26d44ec1ab0d	-0.24337247701199552
50	0xbfc6364cadd267ed	-0.17353209006688478
51	0x3fbec64a460082e7	0.1202131672766985
52	0xbff049d6cd0368b4	-1.0180271156628296
53	0x3fe71a247908472d	0.721941219702989
54	0xbfd0e22c79f52ed9	-0.26380454931198255
55	0x3fd347867b0394ae	0.3012405587490531
56	0x3fc9d1476f76d3ba	0.20169918959223115
57	0xbfe1a5e59f584140	-0.551501094074446
58	0x3ff1610695ded282	1.086187920981644
59	0x3fe2cee2cf45bc66	0.5877546356476955
60	0xbfd76711cde48782	-0.3656658659621074
61	0xbfee6432e222c596	-0.9497312943187122
62	0xbfe64d07dcc97245	-0.6969031631702555
63	0x3fbd5bec40038477	0.11468388140521478
64	0x3fd403c92cebe58d	0.31273106943952983
65	0x3fdd947a1d0488ab	0.46218731721649914
66	0xbfef9b0bf4034ee3	-0.9876765981557266
67	0x3fa797feaa61df24	0.046081503199216806
68	0x3fe2ec68866dc26d	0.5913584352075084
69	0x3fc0cccdab4d8800	0.13125010361096656
70	0xbff1290c79ddd93f	-1.0725216637052453
71	0x3fe78eb68e918f9f	0.7361710342925
72	0xbfc3a804aa58622f	-0.15356500928534575
73	0xbfc1028f8dc1cd76	-0.13289064809542211
74	0x3fc12f2a3f440fe8	0.13425186242250153
75	0x3fe91f7ddc34ffd8	0.7850941944998295
76	0x3fb418cf1f7fa5f9	0.07850355643281394
77	0x3fbdcf8a51427fbc	0.1164480636966791
78	0xbfe86bd77945f15a	-0.7631642693154774
79	0x3fcd644f48c36bf5	0.2296237092294572
80	0xbfcd0ab0717904dd	-0.22688870945606868
81	0x3fcd1e0a96d12690	0.2274792896662814
82	0x3fcef2438f737e1d	0.24176830772829386
83	0xbfd868b065e92aa5	-0.381389712831757
84	0x3fd4475f5fc7efde	0.31685623506177574
85	0x3fdda6899853bc9e	0.4632896411485009
86	0xbfd02c5ef300c23f	-0.2527081845355816
87	0x3fe2af71f19786a4	0.5839166372863542
88	0x3ff2be33ee8f6347	1.171436244845795
89	0xbfe5588cde4fc126	-0.6670593587896618
90	0xbfd07b94e69038ad	-0.25754282489732355
91	0x3fe45cb092e64772	0.6363146657115364
92	0x3fdfa783bd835bd9	0.49459928042545936
93	0x3fd1bbc09b7a7fb3	0.2770844953865847
94	0xbfb4d91508c1b23e	-0.08143741096291365
95	0xbfd479c01afd62f8	-0.3199310554096395
96	0x3ff4a7568cd2255d	1.2908540249648788
97	0xbfc1a00ec3ccaef2	-0.13769707260632164
98	0x3ff1c3dd41eeb64c	1.1103184295165134
99	0xbfea9e19cb5aa500	-0.8317994090804461
100	0x3fb5f86c750465ce	0.08582189423432071
101	0x3fa49f9b5824c28d	0.04028020335170366
102	0x3fd80f88b5b3111d	0.3759481214913352
103	0xbfcb86d567ae4716	-0.21505229532754616
104	0xbfc32c65f2d989a2	-0.1497924266614748
105	0x3fbe087cfa397d4f	0.11731701954839945
106	0xbfcb73edd45f65fc	-0.21447537297972008
107	0x3fa5141cfb17487c	0.04116907658648558
108	0x3fc2147465006537	0.14124922687259708
109	0xbfdbe2201939351d	-0.4356765981982152
110	0xbfc2cb56054893cc	-0.1468303228186002
111	0x3fda6c015cb27f5c	0.4128421216246261
112	0x3fdc13c2adb94109	0.4387060829658514
113	0x3fd4a3ef718e7658	0.32250581826688096
114	0xbfdc31c5eb384cde	-0.4405379101819572
115	0xc0012cc36b6dd14d	-2.1468571083916346
116	0xbfdc18ae89c031e9	-0.4390064568731576
117	0x3fcbd5415adec355	0.21744553505916522
118	0xbff075ace7207d84	-1.0287293461222768
119	0xbfe26f3f6383d2a5	-0.5760800307894739
120	0x3fdfeadef83311b5	0.4987103866408476
121	0x3f57309ebd768f12	0.0014154005237764816
122	0xbfe75734f66d1abd	-0.7293953717242726
123	0xbfb3f870e6e691cb	-0.07800965916846463
124	0xbfc02ad4740a52bd	-0.12630706468612188
125	0x3fe13418699ca875	0.5376092970593748
126	0x3fe7347ef6610443	0.7251581966485293
127	0x3fc63d6d6e723b79	0.173749617508715
128	0x3fcc64100f332c85	0.2218036722391369
129	0x3fc740f3e94a69bd	0.18166970149179731
130	0xbfd3717f34f89f28	-0.30380230114905027
131	0xbfba1ec61799c5b8	-0.10203207088650046
132	0x3fa2e4e053b818cf	0.03690243741952914
133	0xbfd01ab033e7de2e	-0.25162892407340365
134	0x3fe063e93962d30d	0.5121961708851771
135	0x3fe24044500de25b	0.5703450740393906
136	0xbfbe08d3f39ab893	-0.11732220361111194
137	0xbfd6a9239d537206	-0.3540734325777354
138	0xbfc2d6ec2829573b	-0.14718391381273385
139	0xbfe0c2dde5c5cfce	-0.5237874496219719
140	0x3fe2b011e1d54081	0.5839929018784603
141	0x3f2c35b3b8f3e9d0	0.00021522349241094455
142	0x3fa13dff9ed96793	0.03367613615110012
143	0x3fe004768315b22f	0.5005447921990419
144	0x3fd59143a929eb83	0.33699122924706887
145	0x3fa9aed85e0c2ce0	0.050162087898650176
146	0xbfba851e3d124361	-0.10359372130393531
147	0x3f8c9567bfa41aeb	0.013956842933578758
148	0x3fb5ea2a4633b57d	0.08560432638087963
149	0xbff1c14cd53d0c58	-1.109692414248249
150	0xbfe1a9b82c6642b3	-0.5519677035500393
151	0x3fd7919a2cf0ecc3	0.3682618559721044
152	0xbfc38fa3ed3bcef2	-0.15282105525658768
153	0xbfd5911d4a3a6083	-0.33698208092528875
154	0xbfe386fc0447cd42	-0.6102275928118746
155	0x3ff88b63c16469ae	1.5340306810745505
156	0x3fd1e322b6905021	0.2794882567261557
157	0xbfd217090ab40eb6	-0.2826559643292329
158	0xbfac30069fde1148	-0.055053908362455106
159	0xbfeebec664148c90	-0.9607879595463533
160	0x3fc2516b730e9b43	0.14310973279972403
161	0x3fdc69f1d0e9e291	0.44396634484977776
162	0x3fd572b7d22e4352	0.33512683415851996
163	0xbfd3f3d27b0bd29a	-0.3117567254660486
164	0xbfb207a3dca48c60	-0.07042907845293334
165	0x3fcfb545248f6806	0.24771942410626496
166	0x3fbd618eb4aa6b23	0.11476985846313119
167	0xbfc0bd7bf33bcfa2	-0.13078259827272826
168	0xbfe1e918552c5cad	-0.5597039855519107
169	0xbfeb1a4ad6d47a53	-0.8469595142267486
170	0x3fd0dac0f7175f6c	0.26335167055139297
171	0xbfe5e924bb119e54	-0.6847098973930295
172	0x3fd4a6e05a7e67cb	0.3226853259781108
173	0x3fe5a636b2c8a207	0.6765397540921761
174	0xbfb7238068dac37b	-0.09038546142507002
175	0xbfd2be8a2ffdee6e	-0.29287962614737395
176	0xbfdccbb73ede6bec	-0.44993382586989017
177	0x3ff12284de7cb277	1.070927495088794
178	0x3fa4ad05c94735d7	0.040382557697380576
179	0xbff062dcfff165e2	-1.0241365430614384
180	0x3fc3a521cff2d135	0.1534769311307486
181	0xbfc1fca5c0d95fb3	-0.14052268902264373
182	0x3fe5150bf34239b8	0.6588191748758652
183	0x3fdabcfbe7f52cb7	0.4177846684658095
184	0xbfd992a55c5b49bf	-0.3995755578918327
185	0x3fe72198083aea07	0.7228508148903651
186	0x3fe5efcaa99c1520	0.685521441716137
187	0x3ff2b490d60ddc1b	1.1690834390153728
188	0xbfe31e3a2a8067ec	-0.5974398450955483
189	0x3fbb9e23c6ec119b	0.10788177114961288
190	0x3fc043bcfa9276da	0.12706720576254932
191	0xbfc5e99c3f9d5d1e	-0.171191721975199
192	0x3fdacc98f002ff96	0.4187376350273494
193	0x3ff11849ca2c0b0f	1.0684297463746508
194	0x3fb84659a2b0f409	0.09482345792726234
195	0x3fb06d88d1368ce8	0.06417136295071979
196	0xbfd85e5089c67f31	-0.38075650648714815
197	0x3fef506225b72c4e	0.9785624252921339
198	0xbf962882dacde7a6	-0.021638912777667628
199	0x3fdd9b11f4a6f6e5	0.462589730184716
200	0xbfbee2f0c33b7df7	-0.12065033689895431
201	0xbfb2061fb18d18b0	-0.07040594181771342
202	0x3fd90581910f2b4b	0.39096106687491233
203	0x3fd7589194466ff9	0.3647808025359605
204	0x3ff96c23c83bb779	1.5889013120281261
205	0xbfadcf23ab96d378	-0.0582209727248601
206	0xbfcb0fb356af0b56	-0.211416642499979
207	0xbff71fb396f13cb0	-1.4452396293816427
208	0xbfe5d413cbfb2d8c	-0.682138346100531
209	0xbfdab1b61a40e4c6	-0.41709663928811513
210	0xbfd0881ede84390f	-0.25830814104200867
211	0xbfd6e118710e31e5	-0.3574887374932401
212	0x3ff1d6f87359a371	1.114983034693264
213	0xbfdfbe9180a8c1bf	-0.496006370204693
214	0x3f6a35dbcbf30964	0.003199509897599361
215	0xbfc2e829cc69cc37	-0.14771006089321911
216	0x3fd9a15eba7f90e2	0.40047424519276664
217	0xbf9141906449c5cb	-0.016851669427017584
218	0xbfe2ab70baab914e	-0.5834277768995351
219	0x3fd18fdd7589396e	0.2744058273136919
220	0xbfa1e3327d7b882f	-0.0349365022828042
221	0x3fb3e27a99bb1049	0.07767454388800944
222	0x3fa2fb4af584571e	0.03707346198113569
223	0xbfd46a3c70403159	-0.31898413621890637
224	0xbf9f950e4010f65f	-0.030842039737981938
225	0x3fe472e2b46e2018	0.6390241169001483
226	0x3fd4bb292f25a3d0	0.3239233932895873
227	0x3ff3ea4f9bfbb8b7	1.244704827604023
228	0xbfe7c39bb22aaf11	-0.742627952558424
229	0x3fc464edaabc97e2	0.15933008991959158
230	0xbfe4862cea66de4d	-0.6413788393173917
231	0x3fd729173d303224	0.3618829820195819
232	0xbfc7caceeb978591	-0.18587671760091642
233	0x3fe3b955fad29ff8	0.6163740061647323
234	0xbf87f9147d31917e	-0.011705551214796325
235	0x3f8f1fa8016e2bcb	0.015197098296786301
236	0xbfb6b789d2e1507b	-0.08873807333412913
237	0xbfe0e0b9a873f0bb	-0.5274322786422297
238	0xbfa0388da0f3a831	-0.03168146695846053
239	0x3fc93bec910f8b26	0.1971412380508692
240	0xbfd11a4437cfb60c	-0.26722817850426916
241	0xbfb4a481645d0cb6	-0.08063515377311856
242	0xbfe826b3ae99df64	-0.754724350946145
243	0xbfe31e9fbb8e7af8	-0.5974882758344782
244	0x3f6c85ea0259d2c9	0.003481823968110785
245	0xbf9886484c809d7d	-0.023949746770225645
246	0x3fd7f65eb9c58af8	0.37441223279726854
247	0x3fb61dc87bdfc4f5	0.0863919546534538
248	0xbfb5bdce0884916f	-0.08492744167285136
249	0x3fd5b521b3cc5548	0.3391803985444608
250	0x3ffe48f246256ce9	1.892809175499503
251	0xbfb2e5956e83da86	-0.07381566951867499
252	0xbff4c0a59b6a9f60	-1.2970329352337657
253	0xbfe362ad7368663c	-0.6057955984171666
254	0x3fe5c145523e7044	0.6798426252676184
255	0xbfdc663446f51540	-0.4437380497878003

arr_1 f8 [50]
0	0xbfc02d66aab05fb1	-0.12638552984640009
1	0xbfd1007ea44e7fc7	-0.2656551937634472
2	0xbfb6d69b71994dd0	-0.08921214602860705
3	0x3f9cad6ec8adcaae	0.028005343435732293
4	0x3fcb361165c24687	0.21258752316184745
5	0xbfde049bf11b7ab2	-0.46903132005347026
6	0x3f9eb9c3db8d003c	0.030005512500111062
7	0x3fcd82bd411731c8	0.23055234602214925
8	0x3fb46b48ca060f61	0.07976202900141295
9	0x3fcc9b613b5577d1	0.22349181553994282
10	0x3fc57e6d030e1f45	0.16792071007898293
11	0x3fae76a1b445ef5a	0.05949883771515259
12	0xbfe2dcd2d336d5bf	-0.5894559979703259
13	0xbfa43e8e5b020e90	-0.0395397649854462
14	0x3fcee9b372651ee6	0.24150698743527882
15	0x3fba24a0db423dd8	0.10212140419957139
16	0xbfcb9cd95092d2be	-0.21572414812330537
17	0x3f82ca068b7bb8c0	0.009174395686809667
18	0x3fd57f9bf53f5dbc	0.33591364812806623
19	0xbfdb30ad0669a2fb	-0.4248459398864239
20	0xbfbfb0c27d627b5f	-0.12379088936948567
21	0x3fa8404c9e6b1eb6	0.047365564668834834
22	0x3fd6c1dbd3d4b8a6	0.355582196108012
23	0xbfd005ee82e4e763	-0.25036204130775824
24	0xbfcacb25e1cd55b7	-0.2093245842503799
25	0xbfb96741dc019731	-0.09923183079953614
26	0xbfd067aada66879f	-0.25632735565351966
27	0xbfd6f7bb293b6540	-0.35887030626834715
28	0x3fbfb96580d40a18	0.12392267604085594
29	0x3fc682ca84ca8612	0.17586642726841767
30	0x3fb00021be5c2e2f	0.06250201127493747
31	0x3fced30d1c50cb5b	0.24081577189061928
32	0x3fd5230709d37cd0	0.3302629085500941
33	0x3fd26515d543e9ad	0.28741975619018484
34	0xbfa4841c3eea76d7	-0.04007042186752379
35	0x3fc982948be5c7b9	0.19929749327599014
36	0xbfb965134ec535bb	-0.09919853852371478
37	0xbfba633dc3bc2db6	-0.10307680157364171
38	0xbfd61a1989ee008d	-0.34534300298401704
39	0xbfc9923c6be586da	-0.19977526920688754
40	0xbfd1cfd37acb1a31	-0.27830969802417643
41	0xbfa70463e0c7dd28	-0.044955369175961046
42	0x3fcb2c868b900bd3	0.21229631247123723
43	0xbfb5ec0f43d18f8e	-0.08563323407866916
44	0x3fd0f9f27c900f82	0.26525556721048116
45	0x3fa45632fc8fd094	0.039720147447867366
46	0xbfc30923f7e6b4ff	-0.14871644596625086
47	0xbfd63cb07c36d2d6	-0.34745418672836814
48	0x3fd339750144c13c	0.30038190006145604
49	0xbfc18d887553bc63	-0.1371317456136892

arr_2 f8 [50, 2]
0	0x3fd52f0495f4fa58	0.33099474567635445
1	0xbfd7f3e9c93b81f3	-0.3742622819100056
2	0x3fe015ee49e1cb4b	0.5026771014221166
3	0xbfc98d4e2f221843	-0.1996247987883085
4	0x3fe28b5d27a8ca63	0.5795121931644868
5	0x3fb3ec53741cfb90	0.0778247984389806
6	0x3fd73cd64ca5c30a	0.3630882023344816
7	0xbfd860c158d1b315	-0.38090547250503565
8	0xbfd212f43cd57808	-0.2824068636017505
9	0x3fe1e9e3abd7f78d	0.5598009449310993
10	0xbfd7ff3b9c95c07a	-0.37495317737103273
11	0x3fd3516a3f85ec12	0.3018441791861629
12	0x3fd1079286f67dcd	0.26608718090025435
13	0xbfbb8487b1fc197e	-0.10749099822360184
14	0xbfe17eae1d143c95	-0.5467138832044777
15	0x3fde249179df68c2	0.4709819498217592
16	0xbfe0328206517ced	-0.5061655162243405
17	0x3fd02fdf051faf7f	0.2529218244587738
18	0x3fe6700954017fb4	0.7011763230075219
19	0xbfd2eb186a0f1efd	-0.2955990825398514
20	0xbfd87dfa87801a4a	-0.38268912537060784
21	0x3fd1581314916e85	0.2710006428585319
22	0xbfb4703b53a38d64	-0.07983752052273513
23	0x3fd79cd8165d35fc	0.36894800361628177
24	0x3fb8da2eb9a9adc5	0.0970792010572757
25	0xbfe02a03e071674f	-0.5051288016941075
26	0x3fdc9ea151629755	0.4471820158745364
27	0xbfd5641427f5a276	-0.33423332121177596
28	0xbfe1ae061e589b41	-0.5524931519220005
29	0x3fe11fe8e58e8e06	0.5351452334911648
30	0xbfce8480ccf02f4c	-0.23841867453335863
31	0x3fd01781fe357588	0.25143480134087115
32	0xbfd3763d222edac8	-0.3040917238062488
33	0x3fdd10dab4e7fa6f	0.45415370623223955
34	0x3fc54452a988c050	0.16614754941974974
35	0xbfc986be3a177ed5	-0.19942453228485726
36	0xbfc9a31614545e57	-0.2002894973054363
37	0x3fdc470b52c5a3e9	0.44183619578558236
38	0xbfd0f20f8fd6bb1f	-0.2647742180515013
39	0x3fcef655e16e2bcd	0.24189256198255152
40	0x3fbfcc5c498bb957	0.12421204371978455
41	0xbfddd4a308d56ae7	-0.4661033235803828
42	0x3fd6c0f18f36814c	0.3555263422549799
43	0xbf942231e0f36370	-0.019661692957785915
44	0x3fe2842db40d6ad1	0.5786350742958694
45	0xbfdbe5f93a1e2c78	-0.4359114711339269
46	0x3fdd47e3f2443db5	0.4575128427395286
47	0xbfdc10aa08bffe18	-0.4385171018074927
48	0x3fd32b86aad50e47	0.2995316189082797
49	0xbfda1cd41e018395	-0.40800955705895464
50	0xbfd02b9158ba146a	-0.25265916504606045
51	0x3fa6ad6e1bea2fb1	0.04429191675907818
52	0xbfcd0d3fdb790b7c	-0.22696684090086794
53	0x3fd1882733395b07	0.27393512728069463
54	0xbfcc91476bc8d44b	-0.22318356287874716
55	0x3fd7d4cc701e9b99	0.3723631949346156
56	0xbfd9bba8e86321b7	-0.4020788449675154
57	0x3fd0b4aecc0bd239	0.2610280029905741
58	0xbfd6622c32985b81	-0.3497419828503823
59	0x3fd05da8a9491954	0.25571648151198656
60	0xbfda13dfb6d9b544	-0.40746300560461557
61	0x3fc3855740607a0e	0.15250673907662854
62	0x3fc162c422022505	0.13582660351338674
63	0x3fc037c9eb1ad8e1	0.12670253734331197
64	0xbfd475b91727f832	-0.31968524228421125
65	0x3fdd49c9811c7509	0.4576286087847881
66	0x3fcad69c10510940	0.20967436596590439
67	0xbfcf686415ca71f4	-0.24537325920108766
68	0xbfdb51c027ff0774	-0.4268646612728084
69	0x3fdf855301d86f4a	0.49251246624202294
70	0x3fc2eb46e1459ab1	0.14780508041004262
71	0xbfcfd42b78c85ae5	-0.24866240880574889
72	0x3fc1d9fa4cf630b9	0.13946465261358812
73	0xbfc0767e08677938	-0.12861609850274092
74	0x3fdabc0e73067a2c	0.41772805436076754
75	0xbfd44cd74dd4aeb3	-0.3171900043550792
76	0xbfe35f830a603a1a	-0.6054091646818194
77	0x3fc113ecb48aa2d3	0.13342055144791817
78	0xbfbfd03504d99435	-0.12427073830038256
79	0x3fd79a3672282f7b	0.3687873949827389
80	0xbfbe795144974c05	-0.11903865742287685
81	0x3fd99932a069d3cb	0.39997544923181455
82	0xbfdf43361da665d4	-0.4884772576857277
83	0x3fd8f2d667980cb7	0.3898216258678064
84	0x3fdd3c015e5eb606	0.45678743568245783
85	0xbfdec2637e615b69	-0.4806145414526584
86	0xbfd5f8028cf2975f	-0.34326232685486063
87	0x3fdd1bfcd449c94e	0.4548332284095026
88	0x3fda141c1c396d63	0.4074774051311662
89	0xbfd1dcf8eb671584	-0.2791120814184398
90	0xbfc0822991ab3821	-0.12897224056945425
91	0xbfc097e883d1149e	-0.1296358722339947
92	0x3fb782f92c213f83	0.09184224440946136
93	0xbfdd004ff2f2ca69	-0.4531440613310794
94	0xbfd3f5a46c7dc879	-0.31186781496865695
95	0x3fdcbfebcac90b77	0.4492139320683956
96	0x3fd058d1576d3668	0.25542100465540907
97	0xbfd43e343e4f397f	-0.3162966354838303
98	0xbfbe6e5ce4d69df4	-0.11887150370477412
99	0x3fd35a859442e6c4	0.30240001181264753

arr_3 f8 [2]
0	0x3f7b05a4f8040756	0.006597179803294958
1	0xbf7b05a4f8040766	-0.006597179803294972
